DNN architecture, actor network:
Actor(
  (hidden_layers): ModuleList(
    (0): Linear(in_features=24, out_features=64, bias=True)
    (1): Linear(in_features=64, out_features=32, bias=True)
  )
  (batch_norm): ModuleList(
    (0): BatchNorm1d(64, eps=1e-05, momentum=0.1, affine=True, track_running_stats=True)
    (1): BatchNorm1d(32, eps=1e-05, momentum=0.1, affine=True, track_running_stats=True)
  )
  (output): Linear(in_features=32, out_features=2, bias=True)
)DNN architecture, critic network:
Critic(
  (batch_norm): ModuleList(
    (0): BatchNorm1d(64, eps=1e-05, momentum=0.1, affine=True, track_running_stats=True)
    (1): BatchNorm1d(32, eps=1e-05, momentum=0.1, affine=True, track_running_stats=True)
  )
  (hidden_layers): ModuleList(
    (0): Linear(in_features=24, out_features=64, bias=True)
    (1): Linear(in_features=66, out_features=32, bias=True)
  )
  (output): Linear(in_features=32, out_features=2, bias=True)
)

Training hyperparams:
BUFFER_SIZE: 1000000
BATCH_SIZE: 1024
GAMMA: 0.9
TAU: 0.001
LR_ACTOR: 0.0001
LR_CRITIC: 0.001

Training history:Episode 100.	Average Score: 0.01.	Time elapsed: 1:04.Episode 200.	Average Score: 0.01.	Time elapsed: 2:21.Episode 300.	Average Score: 0.00.	Time elapsed: 3:35.Episode 400.	Average Score: 0.02.	Time elapsed
…
